Desktop/S5/Projet federateur/Application/frontend/backend/data.pth (torch, 11671 bytes, 6 tensors)

l1.weight f4 [15, 110]
-0.09507923 0.072658904 -0.06388192 -0.04436137 -0.03619125 0.0042165415 -0.15858766 -0.099907525
0.34335217 0.34204477 0.22574446 -0.057090085 0.45384616 -0.2851608 0.085433446 -0.121613555
-0.06015721 0.17074268 0.41354448 0.21014589 -0.13099837 -0.23379059 -0.00726659 -0.03565135
0.25142223 0.21596457 -0.16744342 -0.19413614 0.28291482 -0.02736809 -0.21964201 0.24974722
0.18573034 0.00013917685 -0.46981242 0.5255942 -0.007581367 -0.077825986 0.21277201 -0.22940943
-0.020467687 -0.17107868 0.15818796 -0.36116388 -0.23886536 -0.38076004 -0.35561508 -0.2501633
-0.040251575 -0.19519104 -0.1316522 -0.18050534 -0.15120992 -0.1327922 -0.017389262 0.24508621
0.42887613 0.102551125 -0.24528524 -0.21621151 -0.17518121 -0.12345488 0.29702985 0.4676082
0.27062285 -0.134533 0.42494068 0.63260174 0.16636594 0.18270807 0.8365771 0.039301604
-0.062317904 -0.34828785 -0.2331324 0.24402125 -0.21069956 0.5946725 -0.26302114 -0.03343
0.21568441 0.0064799986 -0.4744537 -0.07383499 0.031785652 0.2704896 -0.4140684 -0.21326362
0.2728936 -0.4082491 -0.19623141 0.3062253 -0.0012803117 -0.15763818 0.17461698 -0.20133181
0.12468714 -0.34692478 0.03733717 -0.27637708 0.30617347 0.14830337 0.0633196 -0.067182995
-0.13284086 0.65122205 0.3361128 -0.17749411 -0.18274875 -0.14184543 -0.004911195 -0.06893073
-0.07570774 -0.08167702 -0.16237873 0.018448927 0.041992377 0.048078656 0.091558315 0.19874828
-0.08873082 0.040937364 0.006094789 -0.27773204 -0.22505926 -0.036155146 -0.0814762 0.21557416
0.651899 0.025324613 0.67823046 -0.1802235 0.1624951 0.09771999 -0.053187326 -0.3487709
-0.025370719 -0.24502526 0.04453048 -0.438377 -0.29501414 0.15436688 0.12650956 0.041689955
-0.66661364 -0.027690293 -0.2420465 0.023452412 0.07210871 -0.10133911 0.67862695 -0.30677438
0.14822897 -0.20160243 -0.22813076 -0.2556625 -0.2045318 -0.11744952 0.45799035 -0.05666826
-0.23108017 -0.08769437 -0.0541409 0.53731096 -0.046079196 0.14459121 -0.35887507 0.58768266
-0.46691713 -0.07059774 -0.09124795 -0.17107642 0.15247704 0.20725863 0.19176526 -0.17706464
0.35929912 0.56932175 0.38871422 0.00046356852 -0.43166766 0.0066344067 -0.076804094 0.54062057
-0.14247875 0.28079545 -0.16170427 0.3243443 0.15456875 -0.03260803 0.29826003 0.0726181
-0.38946015 -0.039994095 -0.26971593 -0.22111212 0.36970815 -0.15704314 0.24582836 -0.516363
-0.2139236 0.18774772 -0.05833402 -0.18084417 -0.210381 0.32902992 -0.55597824 -0.40998724
-0.14283536 0.33754194 -0.05461342 -0.09434302 0.08487636 -0.2002084 -0.14856209 0.5046078
-0.11641431 -0.04542942 -0.13069583 0.016716713 0.12450823 0.20996056 0.07210875 0.12672505
0.11555334 0.21822594 0.21287028 -0.090327844 -0.043118767 -0.20066719 0.16321956 0.12891905
-0.22486845 -0.27688634 -0.14023085 0.41081408 0.22008243 0.07001743 0.6077893 0.14668308
0.4476492 0.16416065 0.23370393 0.71749365 0.15179731 -0.06303166 -0.24292475 0.09799768
-0.096332416 0.18791029 0.1956554 0.025924655 -0.01806891 0.07982502 0.38646036 -0.238656
00000000: e6b8 c2bd 31ce 943d 86d4 82bd 45b4 35bd
00000010: 473d 14bd ea2a 8a3b ce64 22be 519c ccbd
00000020: dbcb af3e 7e20 af3e 8e29 673e 4bd7 69bd
00000030: 865e e83e 9900 92be bbf7 ae3d 8710 f9bd
00000040: 6867 76bd 2bd7 2e3e 1abc d33e 7c30 573e
00000050: 7024 06be cd66 6fbe 931c eebb 2607 12bd
00000060: 6aba 803e d125 5d3e 4a76 2bbe a0cb 46be
00000070: 36da 903e 0b33 e0bc d6e9 60be bcbd 7f3e
00000080: 1830 3e3e 00f0 1139 418b f0be 578d 063f
00000090: 1e6d f8bb 3b63 9fbd e8e0 593e 4eea 6abe
000000a0: daab a7bc 402f 2fbe 06fc 213e 79ea b8be
000000b0: 1f99 74be fbf2 c2be 2e13 b6be 6715 80be
000000c0: d6de 24bd 29e0 47be d6cf 06be 64d6 38be
000000d0: c6d6 1abe aefa 07be ed73 8ebc e1f7 7a3e
000000e0: a795 db3e 5306 d23d 0e2c 7bbe 8d66 5dbe
000000f0: b462 33be ead5 fcbd 4c14 983e 586a ef3e
00000100: 148f 8a3e 05c3 09be d391 d93e 30f2 213f
00000110: d55b 2a3e d317 3b3e eb29 563f b8fa 203d
00000120: 0f41 7fbd c952 b2be 43ba 6ebe b5e0 793e
00000130: a0c1 57be 753c 183f b5aa 86be e5ed 08bd
00000140: 60dc 5c3e 2b56 d43b 98eb f2be cd36 97bd
00000150: ac31 023d 9d7d 8a3e c600 d4be c761 5abe
00000160: b6b8 8b3e 0706 d1be e3f0 48be 90c9 9c3e
00000170: 22d0 a7ba e76b 21be cbce 323e ed29 4ebe
00000180: f95b ff3d 20a0 b1be dcee 183d 4c81 8dbe
00000190: c5c2 9c3e d7dc 173e b5ad 813d 3d97 89bd
000001a0: 6f07 08be 7db6 263f fa16 ac3e 04c1 35be
000001b0: 7d22 3bbe ee3f 11be 17ee a0bb 8e2b 8dbd
000001c0: a90c 9bbd 4846 a7bd 9c46 26be 3422 973c
000001d0: 3300 2c3d 20ee 443d ed82 bb3d ab84 4b3e
000001e0: 81b8 b5bd f0ad 273d ccb6 c73b e532 8ebe
000001f0: ef75 66be 6b17 14bd fedc a6bd 79bf 5c3e
00000200: dae2 263f 9075 cf3c 83a0 2d3f 828c 38be
00000210: 1e65 263e 6b21 c83d f4da 59bd 1992 b2be
00000220: 41d6 cfbc e7e7 7abe 9865 363d f372 e0be
00000230: 180c 97be 5a12 1e3e b98b 013e 16c3 2a3d
00000240: 31a7 2abf c1d6 e2bc 0adb 77be 461f c03c
00000250: bbad 933d e18a cfbd 7fba 2d3f 8811 9dbe
00000260: 56c9 173e de70 4ebe 1c9b 69be 32e6 82be
00000270: c970 51be 6089 f0bd b67d ea3e fa1c 68bd
00000280: 48a0 6cbe 1b99 b3bd d9c2 5dbd 368d 093f
00000290: 8abd 3cbd b80f 143e 79be b7be 5f72 163f
000002a0: c30f efbe 8c95 90bd 35e0 babd a82e 2fbe
000002b0: f122 1c3e 9b3b 543e 1d5e 443e 6f50 35be
000002c0: 0ef6 b73e 12bf 113f 8d05 c73e 1d0b f339
000002d0: 8b03 ddbe 7065 d93b 774b 9dbd 1c66 0a3f
000002e0: f3e5 11be 6cc4 8f3e ce95 25be 7510 a63e
000002f0: 4547 1e3e ff8f 05bd 8ab5 983e ccb8 943d
00000300: 5267 c7be d9d0 23bd 3518 8abe 376b 62be
00000310: 634a bd3e ebcf 20be 6eba 7b3e 5e30 04bf
00000320: ca0e 5bbe f040 403e a7ef 6ebd 372f 39be
00000330: 1e6e 57be 9c76 a83e 9754 0ebf d9e9 d1be
00000340: 6f43 12be 4cd2 ac3e 52b2 5fbd ea36 c1bd
00000350: a8d3 ad3d 6e03 4dbe a920 18be fa2d 013f
00000360: a06a eebd 3314 3abd 21d5 05be 7df1 883c
00000370: 2cfe fe3d e7ff 563e c1ad 933d 36c4 013e
00000380: 3ba7 ec3d 9f76 5f3e abfa 593e cefd b8bd
00000390: 4e9d 30bd b37b 4dbe 0723 273e 5b03 043e
000003a0: ea43 66be 0cc4 8dbe ad98 0fbe 3956 d23e
000003b0: 4a5d 613e 4c65 8f3d 1498 1b3f 1734 163e
000003c0: 4732 e53e bb19 283e 1550 6f3e aaad 373f
000003d0: c170 1b3e be16 81bd 44c1 78be 02b3 c83d
000003e0: ee49 c5bd 8e6b 403e e459 483e f15f d43c
000003f0: 4005 94bc 4d7b a33d 22de c53e 3d62 74be

l1.bias f4 [15]
0.42752957 0.5163461 0.3969001 0.6043456 0.69819903 0.7529742 0.356265 0.78510237
0.43500718 0.61689895 0.40900034 0.42930007 0.64495605 0.4066621 0.5157924
00000000: 28e5 da3e 422f 043f 7d36 cb3e 65b6 1a3f
00000010: 2cbd 323f ebc2 403f 5e68 b63e 78fc 483f
00000020: 43b9 de3e 17ed 1d3f 7e68 d13e 38cd db3e
00000030: d71b 253f 0436 d03e f90a 043f

l2.weight f4 [15, 15]
0.68493396 0.29956904 -0.35878667 0.096123315 1.1567521 -0.09000674 0.26583207 0.38452744
0.23587196 0.12935719 -0.76950735 0.141533 0.6668217 -0.2283137 -0.49659708 -0.49811867
0.05826244 0.067998536 1.0630795 -0.41110066 0.8061834 -0.09803332 0.22199689 0.874475
-0.5911845 0.6752488 -0.041561536 -0.45984715 1.1261479 -0.36292565 0.79031205 -0.36193195
-0.64702934 0.953397 0.5574302 -0.1667243 -0.04806028 0.46382046 0.33356142 -0.0076031303
-0.13227321 0.13011062 0.18026716 0.65818596 -0.7420989 0.017050255 -0.1517113 -0.9356074
1.4481246 -0.47995442 0.7340253 -0.3177703 1.0884721 -0.40566197 0.22779872 0.50021255
0.23196971 -0.13078173 1.0528073 -0.41952905 0.09582021 0.70531505 0.93746257 0.5795971
-0.89244264 0.30986267 0.7672429 -0.09150847 0.45080325 0.73466957 1.0014281 0.47019657
-0.34002522 0.69742364 0.9212841 -0.64363223 0.06749667 0.5782975 -0.6846648 1.1709901
0.9845262 -1.2062618 0.048661727 0.35757458 0.29731882 0.2467524 -0.63736963 0.9080282
0.4059191 0.33000228 0.9300465 -0.25003275 0.54487497 -0.16834585 -0.4924197 -0.11485745
0.42897964 0.5833625 1.4088526 -0.73050934 0.32441753 0.31821796 0.6046413 0.58611697
0.15264304 0.671735 -0.34567085 0.037154205 -0.15171368 0.2870546 -0.2441126 0.56663054
0.24503401 0.76280427 -0.33740953 -0.04505288 0.5138808 0.87752527 0.47315258 -0.79850817
0.78321815 1.0300556 -0.028228935 0.17304042 0.32704452 -0.5595799 1.0782064 0.17999496
-0.069717176 0.25112903 -0.48987108 1.1101694 0.4847118 -0.82337826 0.1967641 0.3054891
1.0946151 -0.3721554 0.3264005 0.8199669 0.63569045 0.73494864 0.040125493 -1.0490999
1.1246347 -0.004242028 0.9851593 -0.07986018 -0.5184344 0.7911761 0.43511796 0.21293288
-0.43295303 0.5475005 1.1868184 0.16717792 0.2361123 0.7415659 -0.45130938 0.52485746
-1.2119364 0.084589444 0.4051849 -0.5813124 -0.35555926 -0.7811858 0.08146373 -0.7002069
0.12911901 0.37685433 0.6425049 -1.2753762 0.66443604 -1.0808759 0.15984073 0.18176083
-0.1685589 0.24026878 0.43061674 -0.57668054 0.17548513 -0.10478739 -0.25884196 -0.022173336
-0.017739726 -0.25721112 -0.11027126 -0.086362295 -0.043260165 -0.06127195 -0.04598102 -0.25778726
0.10565105 0.041109685 0.053735204 0.48270622 0.54285985 0.3125383 -0.734217 -0.94430286
-0.53299105 0.19792211 0.8679375 0.29044542 -0.49249688 -0.0701456 0.20348641 0.8109477
-0.43592408 0.47832677 -0.51688385 -0.49716136 0.84660095 -0.0127520105 0.30451953 1.1979932
-0.9414542 0.7109067 0.20175286 0.1879022 0.7314316 -0.9057494 0.8138799 0.41454977
0.62339777
00000000: d557 2f3f 1d61 993e e3b2 b7be 4ddc c43d
00000010: 7410 943f 7455 b8bd 241b 883e c8e0 c43e
00000020: 6b88 713e 3676 043e 6ffe 44bf 07ee 103e
00000030: d4b4 2a3f 11cb 69be f941 febe 6909 ffbe
00000040: 99a4 6e3d d142 8b3d fd12 883f c97b d2be
00000050: 0962 4e3f b1c5 c8bd 2753 633e 98dd 5f3f
00000060: de57 17bf 1bdd 2c3f 6e3c 2abd 1671 ebbe
00000070: 9d25 903f 64d1 b9be e451 4a3f 254f b9be
00000080: b7a3 25bf d311 743f bfb3 0e3f c6b9 2abe
00000090: dbda 44bd e079 ed3e 90c8 aa3e ae23 f9bb
000000a0: a172 07be b83b 053e f497 383e e07e 283f
000000b0: 32fa 3dbf faac 8b3c 355a 1bbe f783 6fbf
000000c0: 265c b93f 96bc f5be 15e9 3b3f cab2 a2be
000000d0: 0e53 8b3f edb2 cfbe 1144 693e ee0d 003f
000000e0: 7889 6d3e a5eb 05be 64c2 863f 83cc d6be
000000f0: 633d c43d 878f 343f 8cfd 6f3f 7a60 143f
00000100: 1f77 64bf 52a6 9e3e 086a 443f cb68 bbbd
00000110: afcf e63e 4e13 3c3f cc2e 803f 9bbd f03e
00000120: c917 aebe 5b8a 323f 46d9 6b3f 15c5 24bf
00000130: b23b 8a3d 4e0b 143f 3146 2fbf 01e3 953f
00000140: e909 7c3f c966 9abf 8551 473d 0414 b73e
00000150: 2c3a 983e a9ac 7c3e a82a 23bf 8974 683f
00000160: a1d4 cf3e 0ff6 a83e 8717 6e3f 4b04 80be
00000170: ed7c 0b3f db62 2cbe 6f1e fcbe 623a ebbd
00000180: 38a3 db3e 3f57 153f 4855 b43f a902 3bbf
00000190: 0e1a a63e 77ed a23e c6c9 1a3f c30b 163f
000001a0: 754e 1c3e d3f6 2b3f c5fb b0be 022f 183d
000001b0: d55a 1bbe d2f8 923e a7f8 79be b30e 113f
000001c0: 32ea 7a3e 2447 433f f1c0 acbe 5e89 38bd
000001d0: b18d 033f 7fa5 603f 0e41 f23e 086b 4cbf
000001e0: fc80 483f ddd8 833f 5e40 e7bc 8231 313e
000001f0: 6172 a73e a140 0fbf ab02 8a3f 9950 383e
00000200: e1c7 8ebd fc93 803e 62d0 fabe 081a 8e3f
00000210: 252c f83e ebc8 52bf 877c 493e 1169 9c3e
00000220: 591c 8c3f 278b bebe f71d a73e 5ae9 513f
00000230: 9cbc 223f 9825 3c3f a15a 243d e848 86bf
00000240: 08f4 8f3f b600 8bbb 6633 7c3f bc8d a3bd
00000250: 1eb8 04bf 848a 4a3f c8c7 de3e 140b 5a3e
00000260: 05ac ddbe fe28 0c3f aae9 973f b030 2b3e
00000270: 6cc7 713e 43d7 3d3f 0612 e7be 0f5d 063f
00000280: bb20 9bbf 3b3d ad3d 6574 cf3e e4d0 14bf
00000290: dd0b b6be cbfb 47bf 75d6 a63d c240 33bf
000002a0: c637 043e 0df3 c03e 337b 243f 873f a3bf
000002b0: 7b18 2a3f 245a 8abf 4aad 233e 831f 3a3e
000002c0: b49a 2cbe 0509 763e cc79 dc3e 56a1 13bf
000002d0: 60b2 333e c59a d6bd ef86 84be dba4 b5bc
000002e0: e752 91bc 2db1 83be e6d5 e1bd b7de b0bd
000002f0: 9231 31bd 4cf8 7abd 9856 3cbd b1fc 83be
00000300: 945f d83d a162 283d 7219 5c3d 4525 f73e
00000310: ddf8 0a3f 0505 a03e a5f5 3bbf d5bd 71bf
00000320: 1a72 08bf 18ac 4a3e 2731 5e3f 43b5 943e
00000330: 8d28 fcbe 7fa8 8fbd be5e 503e 459a 4f3f
00000340: 7131 dfbe 3fe7 f43e 8052 04bf ef8b febe
00000350: d7ba 583f cfed 50bc fce9 9b3e d757 993f
00000360: 2403 71bf fbfd 353f 4d98 4e3e 6f69 403e
00000370: 1a3f 3b3f 31df 67bf 6f5a 503f de3f d43e
00000380: ff96 1f3f

l2.bias f4 [15]
0.44145888 0.38851205 0.33684182 0.33722222 0.07512855 0.4911092 -0.06911959 0.076324835
0.29191083 0.34603575 0.27088323 -0.1981931 -0.20441195 0.19059704 0.56995213
00000000: e606 e23e 0deb c63e 8876 ac3e 64a8 ac3e
00000010: ffdc 993d aa72 fb3e 928e 8dbd 3250 9c3d
00000020: 5675 953e 992b b13e 35b1 8a3e 22f3 4abe
00000030: 5e51 51be df2b 433e 62e8 113f

l3.weight f4 [10, 15]
0.38720283 -0.9395669 0.5089745 0.08341187 -0.62764084 -1.3994248 -0.74815977 0.09724386
0.5110849 0.46793422 0.62552834 -1.7846968 0.082169704 -0.6765034 -1.2870607 -0.7265494
0.42045376 -0.4651112 0.49623296 0.43721858 -1.251476 -1.0441567 -0.8863149 0.0399459
0.6677994 -0.6742626 -2.0216153 0.01905011 -0.4273807 -0.56375927 0.16203752 -0.83911866
0.31901765 0.1458025 -1.052246 -0.43763393 0.5920062 0.51317495 -0.1854859 -1.0121641
0.07016018 -1.7627136 -0.17006022 0.6045731 -0.45923048 -0.29176518 -0.5940167 -1.048512
-1.0267442 0.3113749 -0.9088139 0.36046863 0.06878078 0.74613357 0.016164497 -1.0577308
-0.53457093 -0.032709703 0.7805194 -0.2997969 -0.77026975 0.7279761 -0.22644529 0.5713264
0.2522082 -0.5044534 0.34833676 -0.5918403 -0.9370722 -1.2203069 -1.1880137 -1.6224573
-0.22711737 0.097922795 0.36944547 0.27634615 -1.0059226 -0.61436784 -1.3007115 -0.20387907
0.4243855 -2.2179193 -1.4117237 0.47169077 0.5781703 0.4384189 -1.9939097 0.056931287
-0.10661061 -0.21682528 0.16616865 0.2482886 0.0924598 0.6037739 -1.0267978 -0.056809314
-1.2066506 -0.07602554 -0.32723433 -0.15490009 0.042840313 1.7794589 0.15410778 -0.5039172
-0.04646159 -0.9902048 -0.59819496 -1.0876509 -0.550142 0.25675914 0.5877851 -0.7669291
-1.2253392 -1.1754138 0.26845288 -1.1872991 -0.76558954 -0.055809118 -0.42286417 0.5895416
0.2294267 0.40514848 -0.09280329 -1.2985662 -1.032938 0.78241056 0.08064341 0.4797892
-0.69295627 -1.3145002 -0.189404 -2.0296137 0.15555769 -1.0596026 0.334896 -0.16707233
0.49897617 0.24879974 -0.13308604 0.28857404 -1.5470896 0.59791946 0.47418484 0.070169345
-0.7143339 -0.7291181 -1.7568821 0.0592516 -0.9230459 -1.1014203
00000000: 733f c63e 7587 70bf 274c 023f d8d3 aa3d
00000010: 12ad 20bf 5a20 b3bf 6687 3fbf ca27 c73d
00000020: 76d6 023f 1395 ef3e a022 203f f270 e4bf
00000030: 9748 a83d 542f 2dbf 68be a4bf 24ff 39bf
00000040: b745 d73e 0e23 eebe 3f12 fe3e 1ddb df3e
00000050: 5e30 a0bf eda6 85bf 89e5 62bf 509e 233d
00000060: e7f4 2a3f 799c 2cbf 2562 01c0 fa0e 9c3c
00000070: a5d1 dabe 8752 10bf 2aed 253e 7bd0 56bf
00000080: 4856 a33e 404d 153e ffaf 86bf 8e11 e0be
00000090: b88d 173f 6f5f 033f 04f0 3dbe 988e 81bf
000000a0: 24b0 8f3d 99a0 e1bf 4424 2ebe 4dc5 1a3f
000000b0: 4220 ebbe 3f62 95be 7a11 18bf a435 86bf
000000c0: 5b6c 83bf 886c 9f3e 07a8 68bf 588f b83e
000000d0: f0dc 8c3d 9c02 3f3f 686b 843c b963 87bf
000000e0: a4d9 08bf 9cfa 05bd 1fd0 473f fb7e 99be
000000f0: 6630 45bf a45c 3a3f 46e1 67be 7242 123f
00000100: 6f21 813e dc23 01bf 3259 b23e d982 17bf
00000110: f7e3 6fbf 0433 9cbf d510 98bf aeac cfbf
00000120: 7591 68be bf8b c83d f527 bd3e 3e7d 8d3e
00000130: 12c2 80bf 3647 1dbf b77d a6bf adc5 50be
00000140: 0e49 d93e 64f2 0dc0 5db3 b4bf 7481 f13e
00000150: f802 143f 7178 e03e 6f38 ffbf c830 693d
00000160: aa56 dabd 7207 5ebe 1d28 2a3e 5e3f 7e3e
00000170: 905b bd3d ed90 1a3f 1c6e 83bf e2b0 68bd
00000180: 8773 9abf 47b3 9bbd 428b a7be 219e 1ebe
00000190: 5379 2f3d 4fc5 e33f 6ece 1d3e b800 01bf
000001a0: 824e 3ebd 107e 7dbf 4e23 19bf 2538 8bbf
000001b0: 1bd6 0cbf ef75 833e 1679 163f 7755 44bf
000001c0: ead7 9cbf f673 96bf a872 893e 6bf9 97bf
000001d0: adfd 43bf 1a98 64bd a781 d8be 33ec 163f
000001e0: d5ee 6a3e 9f6f cf3e a70f bebd 6b37 a6bf
000001f0: 5037 84bf 0f4c 483f 5f28 a53d eea6 f53e
00000200: 9565 31bf 8b41 a8bf 1ff3 41be 31e5 01c0
00000210: 844a 1f3e 0fa1 87bf 7d77 ab3e 0215 2bbe
00000220: ce79 ff3e 5cc5 7e3e b547 08be fabf 933e
00000230: 0807 c6bf 4011 193f 5bc8 f23e f2b4 8f3d
00000240: 96de 36bf 7ca7 3abf 83e1 e0bf ceb1 723d
00000250: bc4c 6cbf 57fb 8cbf

l3.bias f4 [10]
-0.032523643 0.003887857 -0.19522049 -0.0085125435 -0.1051863 -0.024807401 0.053266767 0.10169332
-0.24826668 -0.31155375
00000000: 8337 05bd 6bcb 7e3b e1e7 47be 3278 0bbc
00000010: ea6b d7bd e438 cbbc 412e 5a3d 9644 d03d
00000020: 9f39 7ebe f983 9fbe
